…
 lr=0.0005, max_features=32, max_size=250, min_features=32, min_size=25, model_to_load='g_multivanilla_1.pt', noise_weight=0.1, num_blocks=5, num_critic=1, num_steps=60, padding=0, penalty_weight=0.1, print_every=200, reconstruction_weight=10.0, results_dir='./results', root='1.jpg', save='2022-06-22_21-06-45', save_path='./results\\2022-06-22_21-06-45', scale_factor_init=0.75, seed=2527, step_size=2000, use_tb=False)
2022-06-22 21:06:48 - INFO - Loading model...
2022-06-22 21:06:49 - INFO - MultiVanilla(
  (curr): Vanilla(
    (features): Sequential(
      (0): BasicBlock(
        (conv): Conv2d(3, 128, kernel_size=(3, 3), stride=(1, 1))
        (batch_norm): BatchNorm2d(128, eps=1e-05, momentum=0.1, affine=True, track_running_stats=True)
        (lrelu): LeakyReLU(negative_slope=0.2, inplace=True)
      )
      (1): BasicBlock(
        (conv): Conv2d(128, 128, kernel_size=(3, 3), stride=(1, 1))
        (batch_norm): BatchNorm2d(128, eps=1e-05, momentum=0.1, affine=True, track_running_stats=True)
        (lrelu): LeakyReLU(negative_slope=0.2, inplace=True)
      )
      (2): BasicBlock(
        (conv): Conv2d(128, 128, kernel_size=(3, 3), stride=(1, 1))
        (batch_norm): BatchNorm2d(128, eps=1e-05, momentum=0.1, affine=True, track_running_stats=True)
        (lrelu): LeakyReLU(negative_slope=0.2, inplace=True)
      )
      (3): BasicBlock(
        (conv): Conv2d(128, 128, kernel_size=(3, 3), stride=(1, 1))
        (batch_norm): BatchNorm2d(128, eps=1e-05, momentum=0.1, affine=True, track_running_stats=True)
        (lrelu): LeakyReLU(negative_slope=0.2, inplace=True)
      )
    )
    (features_to_image): Sequential(
      (0): Conv2d(128, 3, kernel_size=(3, 3), stride=(1, 1))
      (1): Tanh()
    )
  )
  (prev): Module(
    (s0): Vanilla(
      (features): Sequential(
        (0): BasicBlock(
          (conv): Conv2d(3, 32, kernel_size=(3, 3), stride=(1, 1))
          (batch_norm): BatchNorm2d(32, eps=1e-05, momentum=0.1, affine=True, track_running_stats=True)
          (lrelu): LeakyReLU(negative_slope=0.2, inplace=True)
        )
        (1): BasicBlock(
          (conv): Conv2d(32, 32, kernel_size=(3, 3), stride=(1, 1))
          (batch_norm): BatchNorm2d(32, eps=1e-05, momentum=0.1, affine=True, track_running_stats=True)
          (lrelu): LeakyReLU(negative_slope=0.2, inplace=True)
        )
        (2): BasicBlock(
          (conv): Conv2d(32, 32, kernel_size=(3, 3), stride=(1, 1))
          (batch_norm): BatchNorm2d(32, eps=1e-05, momentum=0.1, affine=True, track_running_stats=True)
          (lrelu): LeakyReLU(negative_slope=0.2, inplace=True)
        )
        (3): BasicBlock(
          (conv): Conv2d(32, 32, kernel_size=(3, 3), stride=(1, 1))
          (batch_norm): BatchNorm2d(32, eps=1e-05, momentum=0.1, affine=True, track_running_stats=True)
          (lrelu): LeakyReLU(negative_slope=0.2, inplace=True)
        )
      )
      (features_to_image): Sequential(
        (0): Conv2d(32, 3, kernel_size=(3, 3), stride=(1, 1))
        (1): Tanh()
      )
    )
    (s1): Vanilla(
      (features): Sequential(
        (0): BasicBlock(
          (conv): Conv2d(3, 32, kernel_size=(3, 3), stride=(1, 1))
          (batch_norm): BatchNorm2d(32, eps=1e-05, momentum=0.1, affine=True, track_running_stats=True)
          (lrelu): LeakyReLU(negative_slope=0.2, inplace=True)
        )
        (1): BasicBlock(
          (conv): Conv2d(32, 32, kernel_size=(3, 3), stride=(1, 1))
          (batch_norm): BatchNorm2d(32, eps=1e-05, momentum=0.1, affine=True, track_running_stats=True)
          (lrelu): LeakyReLU(negative_slope=0.2, inplace=True)
        )
        (2): BasicBlock(
          (conv): Conv2d(32, 32, kernel_size=(3, 3), stride=(1, 1))
          (batch_norm): BatchNorm2d(32, eps=1e-05, momentum=0.1, affine=True, track_running_stats=True)
          (lrelu): LeakyReLU(negative_slope=0.2, inplace=True)
        )
        (3): BasicBlock(
          (conv): Conv2d(32, 32, kernel_size=(3, 3), stride=(1, 1))
          (batch_norm): BatchNorm2d(32, eps=1e-05, momentum=0.1, affine=True, track_running_stats=True)
          (lrelu): LeakyReLU(negative_slope=0.2, inplace=True)
        )
      )
      (features_to_image): Sequential(
        (0): Conv2d(32, 3, kernel_size=(3, 3), stride=(1, 1))
        (1): Tanh()
      )
    )
    (s2): Vanilla(
      (features): Sequential(
        (0): BasicBlock(
          (conv): Conv2d(3, 32, kernel_size=(3, 3), stride=(1, 1))
          (batch_norm): BatchNorm2d(32, eps=1e-05, momentum=0.1, affine=True, track_running_stats=True)
          (lrelu): LeakyReLU(negative_slope=0.2, inplace=True)
        )
        (1): BasicBlock(
          (conv): Conv2d(32, 32, kernel_size=(3, 3), stride=(1, 1))
          (batch_norm): BatchNorm2d(32, eps=1e-05, momentum=0.1, affine=True, track_running_stats=True)
          (lrelu): LeakyReLU(negative_slope=0.2, inplace=True)
        )
        (2): BasicBlock(
          (conv): Conv2d(32, 32, kernel_size=(3, 3), stride=(1, 1))
          (batch_norm): BatchNorm2d(32, eps=1e-05, momentum=0.1, affine=True, track_running_stats=True)
          (lrelu): LeakyReLU(negative_slope=0.2, inplace=True)
        )
        (3): BasicBlock(
          (conv): Conv2d(32, 32, kernel_size=(3, 3), stride=(1, 1))
          (batch_norm): BatchNorm2d(32, eps=1e-05, momentum=0.1, affine=True, track_running_stats=True)
          (lrelu): LeakyReLU(negative_slope=0.2, inplace=True)
        )
      )
      (features_to_image): Sequential(
        (0): Conv2d(32, 3, kernel_size=(3, 3), stride=(1, 1))
        (1): Tanh()
      )
    )
    (s3): Vanilla(
      (features): Sequential(
        (0): BasicBlock(
          (conv): Conv2d(3, 32, kernel_size=(3, 3), stride=(1, 1))
          (batch_norm): BatchNorm2d(32, eps=1e-05, momentum=0.1, affine=True, track_running_stats=True)
          (lrelu): LeakyReLU(negative_slope=0.2, inplace=True)
        )
        (1): BasicBlock(
          (conv): Conv2d(32, 32, kernel_size=(3, 3), stride=(1, 1))
          (batch_norm): BatchNorm2d(32, eps=1e-05, momentum=0.1, affine=True, track_running_stats=True)
          (lrelu): LeakyReLU(negative_slope=0.2, inplace=True)
        )
        (2): BasicBlock(
          (conv): Conv2d(32, 32, kernel_size=(3, 3), stride=(1, 1))
          (batch_norm): BatchNorm2d(32, eps=1e-05, momentum=0.1, affine=True, track_running_stats=True)
          (lrelu): LeakyReLU(negative_slope=0.2, inplace=True)
        )
        (3): BasicBlock(
          (conv): Conv2d(32, 32, kernel_size=(3, 3), stride=(1, 1))
          (batch_norm): BatchNorm2d(32, eps=1e-05, momentum=0.1, affine=True, track_running_stats=True)
          (lrelu): LeakyReLU(negative_slope=0.2, inplace=True)
        )
      )
      (features_to_image): Sequential(
        (0): Conv2d(32, 3, kernel_size=(3, 3), stride=(1, 1))
        (1): Tanh()
      )
    )
    (s4): Vanilla(
      (features): Sequential(
        (0): BasicBlock(
          (conv): Conv2d(3, 64, kernel_size=(3, 3), stride=(1, 1))
          (batch_norm): BatchNorm2d(64, eps=1e-05, momentum=0.1, affine=True, track_running_stats=True)
          (lrelu): LeakyReLU(negative_slope=0.2, inplace=True)
        )
        (1): BasicBlock(
          (conv): Conv2d(64, 64, kernel_size=(3, 3), stride=(1, 1))
          (batch_norm): BatchNorm2d(64, eps=1e-05, momentum=0.1, affine=True, track_running_stats=True)
          (lrelu): LeakyReLU(negative_slope=0.2, inplace=True)
        )
        (2): BasicBlock(
          (conv): Conv2d(64, 64, kernel_size=(3, 3), stride=(1, 1))
          (batch_norm): BatchNorm2d(64, eps=1e-05, momentum=0.1, affine=True, track_running_stats=True)
          (lrelu): LeakyReLU(negative_slope=0.2, inplace=True)
        )
        (3): BasicBlock(
          (conv): Conv2d(64, 64, kernel_size=(3, 3), stride=(1, 1))
          (batch_norm): BatchNorm2d(64, eps=1e-05, momentum=0.1, affine=True, track_running_stats=True)
          (lrelu): LeakyReLU(negative_slope=0.2, inplace=True)
        )
      )
      (features_to_image): Sequential(
        (0): Conv2d(64, 3, kernel_size=(3, 3), stride=(1, 1))
        (1): Tanh()
      )
    )
    (s5): Vanilla(
      (features): Sequential(
        (0): BasicBlock(
          (conv): Conv2d(3, 64, kernel_size=(3, 3), stride=(1, 1))
          (batch_norm): BatchNorm2d(64, eps=1e-05, momentum=0.1, affine=True, track_running_stats=True)
          (lrelu): LeakyReLU(negative_slope=0.2, inplace=True)
        )
        (1): BasicBlock(
          (conv): Conv2d(64, 64, kernel_size=(3, 3), stride=(1, 1))
          (batch_norm): BatchNorm2d(64, eps=1e-05, momentum=0.1, affine=True, track_running_stats=True)
          (lrelu): LeakyReLU(negative_slope=0.2, inplace=True)
        )
        (2): BasicBlock(
          (conv): Conv2d(64, 64, kernel_size=(3, 3), stride=(1, 1))
          (batch_norm): BatchNorm2d(64, eps=1e-05, momentum=0.1, affine=True, track_running_stats=True)
          (lrelu): LeakyReLU(negative_slope=0.2, inplace=True)
        )
        (3): BasicBlock(
          (conv): Conv2d(64, 64, kernel_size=(3, 3), stride=(1, 1))
          (batch_norm): BatchNorm2d(64, eps=1e-05, momentum=0.1, affine=True, track_running_stats=True)
          (lrelu): LeakyReLU(negative_slope=0.2, inplace=True)
        )
      )
      (features_to_image): Sequential(
        (0): Conv2d(64, 3, kernel_size=(3, 3), stride=(1, 1))
        (1): Tanh()
      )
    )
    (s6): Vanilla(
      (features): Sequential(
        (0): BasicBlock(
          (conv): Conv2d(3, 64, kernel_size=(3, 3), stride=(1, 1))
          (batch_norm): BatchNorm2d(64, eps=1e-05, momentum=0.1, affine=True, track_running_stats=True)
          (lrelu): LeakyReLU(negative_slope=0.2, inplace=True)
        )
        (1): BasicBlock(
          (conv): Conv2d(64, 64, kernel_size=(3, 3), stride=(1, 1))
          (batch_norm): BatchNorm2d(64, eps=1e-05, momentum=0.1, affine=True, track_running_stats=True)
          (lrelu): LeakyReLU(negative_slope=0.2, inplace=True)
        )
        (2): BasicBlock(
          (conv): Conv2d(64, 64, kernel_size=(3, 3), stride=(1, 1))
          (batch_norm): BatchNorm2d(64, eps=1e-05, momentum=0.1, affine=True, track_running_stats=True)
          (lrelu): LeakyReLU(negative_slope=0.2, inplace=True)
        )
        (3): BasicBlock(
          (conv): Conv2d(64, 64, kernel_size=(3, 3), stride=(1, 1))
          (batch_norm): BatchNorm2d(64, eps=1e-05, momentum=0.1, affine=True, track_running_stats=True)
          (lrelu): LeakyReLU(negative_slope=0.2, inplace=True)
        )
      )
      (features_to_image): Sequential(
        (0): Conv2d(64, 3, kernel_size=(3, 3), stride=(1, 1))
        (1): Tanh()
      )
    )
    (s7): Vanilla(
      (features): Sequential(
        (0): BasicBlock(
          (conv): Conv2d(3, 64, kernel_size=(3, 3), stride=(1, 1))
          (batch_norm): BatchNorm2d(64, eps=1e-05, momentum=0.1, affine=True, track_running_stats=True)
          (lrelu): LeakyReLU(negative_slope=0.2, inplace=True)
        )
        (1): BasicBlock(
          (conv): Conv2d(64, 64, kernel_size=(3, 3), stride=(1, 1))
          (batch_norm): BatchNorm2d(64, eps=1e-05, momentum=0.1, affine=True, track_running_stats=True)
          (lrelu): LeakyReLU(negative_slope=0.2, inplace=True)
        )
        (2): BasicBlock(
          (conv): Conv2d(64, 64, kernel_size=(3, 3), stride=(1, 1))
          (batch_norm): BatchNorm2d(64, eps=1e-05, momentum=0.1, affine=True, track_running_stats=True)
          (lrelu): LeakyReLU(negative_slope=0.2, inplace=True)
        )
        (3): BasicBlock(
          (conv): Conv2d(64, 64, kernel_size=(3, 3), stride=(1, 1))
          (batch_norm): BatchNorm2d(64, eps=1e-05, momentum=0.1, affine=True, track_running_stats=True)
          (lrelu): LeakyReLU(negative_slope=0.2, inplace=True)
        )
      )
      (features_to_image): Sequential(
        (0): Conv2d(64, 3, kernel_size=(3, 3), stride=(1, 1))
        (1): Tanh()
      )
    )
    (s8): Vanilla(
      (features): Sequential(
        (0): BasicBlock(
          (conv): Conv2d(3, 128, kernel_size=(3, 3), stride=(1, 1))
          (batch_norm): BatchNorm2d(128, eps=1e-05, momentum=0.1, affine=True, track_running_stats=True)
          (lrelu): LeakyReLU(negative_slope=0.2, inplace=True)
        )
        (1): BasicBlock(
          (conv): Conv2d(128, 128, kernel_size=(3, 3), stride=(1, 1))
          (batch_norm): BatchNorm2d(128, eps=1e-05, momentum=0.1, affine=True, track_running_stats=True)
          (lrelu): LeakyReLU(negative_slope=0.2, inplace=True)
        )
        (2): BasicBlock(
          (conv): Conv2d(128, 128, kernel_size=(3, 3), stride=(1, 1))
          (batch_norm): BatchNorm2d(128, eps=1e-05, momentum=0.1, affine=True, track_running_stats=True)
          (lrelu): LeakyReLU(negative_slope=0.2, inplace=True)
        )
        (3): BasicBlock(
          (conv): Conv2d(128, 128, kernel_size=(3, 3), stride=(1, 1))
          (batch_norm): BatchNorm2d(128, eps=1e-05, momentum=0.1, affine=True, track_running_stats=True)
          (lrelu): LeakyReLU(negative_slope=0.2, inplace=True)
        )
      )
      (features_to_image): Sequential(
        (0): Conv2d(128, 3, kernel_size=(3, 3), stride=(1, 1))
        (1): Tanh()
      )
    )
  )
)
2022-06-22 21:06:49 - INFO - Number of parameters in generator: 1479966
2022-06-22 21:06:49 - INFO - Evaluating...
